spam_model_dl.pt (torch, 210310 bytes, 7 tensors)

embedding.weight f4 [271, 64]
00000000: 0000 0000 0000 0000 0000 0000 0000 0000
00000010: 0000 0000 0000 0000 0000 0000 0000 0000
00000020: 0000 0000 0000 0000 0000 0000 0000 0000
00000030: 0000 0000 0000 0000 0000 0000 0000 0000
00000040: 0000 0000 0000 0000 0000 0000 0000 0000
00000050: 0000 0000 0000 0000 0000 0000 0000 0000
00000060: 0000 0000 0000 0000 0000 0000 0000 0000
00000070: 0000 0000 0000 0000 0000 0000 0000 0000
00000080: 0000 0000 0000 0000 0000 0000 0000 0000
00000090: 0000 0000 0000 0000 0000 0000 0000 0000
000000a0: 0000 0000 0000 0000 0000 0000 0000 0000
000000b0: 0000 0000 0000 0000 0000 0000 0000 0000
000000c0: 0000 0000 0000 0000 0000 0000 0000 0000
000000d0: 0000 0000 0000 0000 0000 0000 0000 0000
000000e0: 0000 0000 0000 0000 0000 0000 0000 0000
000000f0: 0000 0000 0000 0000 0000 0000 0000 0000
00000100: c2e7 e1be 3661 ec3f a029 57bf bfd8 c13f
00000110: 4880 5d3f c04d 09be 77bf c2bf 37d9 ddbf
00000120: 00df f33e 3250 2d3f 29d2 f2bf 04ee 9e3e
00000130: 716e bfbf d9f6 0dc0 b25b 02c0 85b9 78bf
00000140: 7c32 b33e 2212 1c3e 15d6 e93e 739b aabf
00000150: 333d 8a3f 0497 0740 b1e7 41be c6ea 98bf
00000160: 60f6 12bf 482f bdbf 98d3 0fc0 d7e0 f43d
00000170: 7381 61bf cd6f 2d3f 7ed2 64bf 9c40 87bf
00000180: a0b2 563e 3a60 423f cf0c a53f b891 ed3d
00000190: 73a3 503f ab77 f4bf 5358 8fbe de95 773d
000001a0: b5b3 4a3d c9c6 efbf d7e1 87be 426c 0d3f
000001b0: c59f 34bf 8915 f4be 9452 69bf 945f d4be
000001c0: d9df bd3f 43a4 d03f b988 b03f abb7 1cbe
000001d0: 8601 90bd 18ef afbf 90ee ebbc de79 5cbe
000001e0: af19 b93f 7494 b23e a40a b53e 85df fd3f
000001f0: 5593 e03e cefe dcbe 6ba7 7abf a2a4 233f
00000200: 0892 7ebf b2d9 c6bf 5cf0 e6bf 665d 25bf
00000210: 8a17 7fbf 38b5 623f 3d6e 173e 085d cd3e
00000220: 85fe 3a40 12e4 b3be bfa9 bf3e 9ea9 95be
00000230: 6733 a63d 77a7 8f3e 54e1 ea3e 57f2 ddbd
00000240: f98a dd3f ff97 2e3f b034 d0be 3510 a23e
00000250: d4c4 92bf 9353 2cbf 0220 1a40 cead f1bf
00000260: e264 efbe 0088 16bf 48ed c23e 0d20 2e3f
00000270: 52e5 d1be e99d 05bf d0d7 fc3e c88e 9b3f
00000280: eab7 c63f 24cd 843f 7fe2 8f3e 7dac d2bf
00000290: c70d 56bf 87ef 83be 7c0f 5dbe 6eea 4dbf
000002a0: b62c 4d3f 22b1 c83e a030 b8be d360 a9be
000002b0: 0d3a f73e cfca a03c 7ac7 27bf 5247 ebbf
000002c0: 9f50 c8bc 194f f3bc e081 be3e 88a0 543f
000002d0: de0f cc3e 0eef d1bc 65ac 21c0 39d9 073f
000002e0: a3b3 ca3f 316e f8bf c537 0e3f e830 57c0
000002f0: e125 f03e c1ee 9a3d 393b cbbe 652a c2bf
00000300: e648 f3bf be26 4bbf 1b3c 1840 cad1 1ebe
00000310: 6b49 063f e254 803e 84da a73f 5848 a8bf
00000320: 971f 91bf 2a3e b4bf bac5 f03d 163d 1abf
00000330: 71f8 dcbc 3181 40bf dff1 fabe 93ca 523e
00000340: 8368 5b3f b45f 9fbf c57a 3340 91ce f43e
00000350: 3916 dfbd b76a 533f d420 7abe a97e 6c3f
00000360: 45bc 79bf 6a2c 993f b032 fa3f 0c09 8b3f
00000370: 9aa1 bb3e 1b1b 96bf bab1 5b3f 8059 003f
00000380: 8b77 d5bf 9c39 b13d 9eef 2d3f fa32 b13f
00000390: 014e c9bf b0bc 21be 3763 00c0 d4ea 7bbf
000003a0: 1093 dabe 976c cc3d 7b4c 923f 4a33 0ebf
000003b0: 8cf2 39bf 9151 0c3f 723d 82bf 6b42 93bf
000003c0: 5c32 0cbf 93d2 eb3f 68da b8bf 7d0a 84bf
000003d0: 671a b3be 1f66 3c3f 85ae 5a3f 87c1 3440
000003e0: c7c4 203f 01be b3bf 32d4 69bf 7740 24bd
000003f0: 32a6 503e a1f9 ce3f 9b6e 44bf 0729 8e3e
0.0 0.0 0.0 0.0 0.0 0.0 0.0 0.0
0.0 0.0 0.0 0.0 0.0 0.0 0.0 0.0
0.0 0.0 0.0 0.0 0.0 0.0 0.0 0.0
0.0 0.0 0.0 0.0 0.0 0.0 0.0 0.0
0.0 0.0 0.0 0.0 0.0 0.0 0.0 0.0
0.0 0.0 0.0 0.0 0.0 0.0 0.0 0.0
0.0 0.0 0.0 0.0 0.0 0.0 0.0 0.0
0.0 0.0 0.0 0.0 0.0 0.0 0.0 0.0
-0.4412213 1.8467166 -0.8404789 1.5144271 0.86523867 -0.13408566 -1.521468 -1.7331914
0.47631073 0.67700493 -1.8970386 0.31040967 -1.4955579 -2.2181914 -2.0368466 -0.9715808
0.34999454 0.15241292 0.45671144 -1.3328689 1.0799927 2.1185923 -0.1893604 -1.1946647
-0.5740719 -1.4780054 -2.2472897 0.11956947 -0.8808815 0.6774872 -0.89383686 -1.0566592
0.20966578 0.7592808 1.2894534 0.11600059 0.81499404 -1.909902 -0.27997074 0.06044566
0.04948779 -1.873254 -0.2653949 0.55243313 -0.7055629 -0.4767268 -0.9114163 -0.4147917
1.4833938 1.6300129 1.3791724 -0.15304439 -0.070315406 -1.3744841 -0.028800279 -0.21530864
1.4460963 0.34878886 0.3535968 1.9833838 0.43862405 -0.4316315 -0.9791171 0.63923085
-0.99441576 -1.5535185 -1.8042102 -0.6459564 -0.9964529 0.8855777 0.14788146 0.4011004
2.9217846 -0.3513494 0.37434193 -0.2923097 0.08115273 0.28057453 0.45875037 -0.10837238
1.7308036 0.6820068 -0.40665197 0.3165299 -1.1466317 -0.67315024 2.4082036 -1.8881166
-0.46756655 -0.5880127 0.38071656 0.68017656 -0.4099527 -0.52194077 0.49383402 1.2152948
1.5524876 1.0375104 0.2810249 -1.6458889 -0.8361477 -0.25768682 -0.21587938 -0.80435836
0.8014635 0.39197642 -0.35974598 -0.33081684 0.48286477 0.019627957 -0.6553875 -1.838114
-0.024452506 -0.029700803 0.37208462 0.8305745 0.39855856 -0.025626685 -2.5261471 0.5306583
1.5836071 -1.9408628 0.5555385 -3.36236 0.469039 0.0756507 -0.3969362 -1.5169188
-1.9006622 -0.7935599 2.3786685 -0.15509716 0.52455777 0.2506476 1.3113561 -1.3147078
-1.1337765 -1.4081471 0.11756463 -0.6024946 -0.026973935 -0.7519713 -0.49012658 0.20585088
0.8570635 -1.2451081 2.8043683 0.47813848 -0.108929105 0.8258471 -0.24426585 0.9238077
-0.975529 1.1966679 1.9546719 1.0862136 0.3664673 -1.1727022 0.85818064 0.50136566
-1.6677107 0.08653566 0.6794375 1.3843682 -1.572693 -0.15794635 -2.0060556 -0.98405194
-0.42690325 0.09981649 1.142959 -0.5554701 -0.7263572 0.5481196 -1.0175002 -1.1504644
-0.5476434 1.8423637 -1.4441652 -1.0315701 -0.3498108 0.73593324 0.85422546 2.824312
0.6280026 -1.404236 -0.9133941 -0.04010054 0.20375898 1.6169931 -0.7673127 0.27765676

lstm.weight_ih_l0 f4 [256, 64]
00000000: 7431 503c d760 de3d ecc8 663d 10d9 cf3d
00000010: 4613 ce3d 4128 ee3d ac8e 873d b54b 9d3d
00000020: b566 f9ba 4dc6 e0bd c8bd 74bc ae0d b23c
00000030: 9152 31bc 0c20 923d c0ab 82bd 9daa e1bd
00000040: b7f3 af3d 3055 b93c 8375 e7bd ab8b e6bd
00000050: 197d bcbd 8721 69bc 2eb4 c5bd dedc b1bd
00000060: 0dc4 f2bd 0c71 703d 9559 b93d 1422 ee3d
00000070: 662d cd3d 4db7 523d f970 acbd 5e77 a3bd
00000080: a7ab a93d 2f38 a4bd 67c8 f73d 1510 8bbd
00000090: a1d3 f3bd 5b2a 0e3d 44a1 abbd 30a2 3b3d
000000a0: 2ec4 c93d 796d 623d bd48 be3d c024 20bd
000000b0: 1ad0 9b3d dfcb 1c3d 59f6 b33d 1fc6 723c
000000c0: 406a 543d e028 0e3d e280 db3d f9d7 a93c
000000d0: f6b7 89bd d68f 183d 53fa 07b9 536d 22bd
000000e0: e356 6abd bc88 3a3d 29e3 6ebd bd6b 923d
000000f0: 0a4a 053c af9d b1bd f0cb dc3d 2946 5a3d
00000100: 4fb4 e93d a8b0 49bd 89ac 0fbd 7b93 853d
00000110: 3433 d03d b390 4abd 5005 f93c f9f0 77bc
00000120: 261a 86bc 1df8 c53d 7738 bf3d f519 91bb
00000130: 7abd debb a139 bdbd e4dc 9bbb ae92 51bd
00000140: 9e6f e63d 095d 3f3c b3e4 95bd b0ba f83d
00000150: 67fc 613d ddbc cbbd 144a ddbd 4267 003b
00000160: 4f5b dabc bde3 65bd da3d 21bc a4b3 6bbc
00000170: e3a2 97bc 74d0 eb3c dea2 923d 37ad da3d
00000180: d429 b4bc 08bf 693d e082 da3d f456 633d
00000190: 5b2e b63d a74b 8e3c d520 a6bc 62df c7bd
000001a0: f23e b7bd 6ce0 f2bc 47fa 3f3d c1a7 9fbd
000001b0: f5cf a13d ba88 75bd 8389 673d 5f80 e4bd
000001c0: bb6e b13a 2ca9 f9bd b91b 27bb d538 80bd
000001d0: d552 28bd c8be 763d 68a9 71bd aa12 133d
000001e0: f907 92bc 9de9 42bd da51 f8bd 3e9c 8bbc
000001f0: 87d1 32bd 7ae8 cc3d 1ca6 bfbd 7baa 0d3d
00000200: 39d5 ea3d 97e7 ca3c ac40 9d3d 92e1 e3bd
00000210: 5e70 1ebd 92fb aa3d 6009 1bbb 6e3d e93d
00000220: 8ca8 353d 3a74 29bd 5ed1 4b3d 1326 b6bd
00000230: 8ff6 f03d de4f c43c 758d 9cbd f3a6 f1bc
00000240: b3f7 9e3c b267 743d bc8c aa3d 8685 5c3d
00000250: cfd1 b9bd f2d2 b5bd 1c0c 5dbc bef0 3b3d
00000260: d4d2 db3d 5a0f 46bd d369 dbbd 4207 5fbb
00000270: aefd 7fbd ece5 623d ac4a 283d 5776 02bd
00000280: e47c e7bd a439 bb3d 147c c73c 6db4 313d
00000290: a5f6 72bd 9b47 9dbd 25ed b53b 7c9b df3b
000002a0: 8974 1f3c 968f da3d cece 9f3d 486f e83d
000002b0: f75f f3bd e9cb 343d 2a75 323c 633a 113d
000002c0: 10dc 78bd 07fa 2bbc eab6 813d fa9e f9bd
000002d0: 012f a53b 17b8 bc3d aee6 56bd 467f e4bd
000002e0: 897a d63d ecb1 123c 12ac 17bc 415c 383d
000002f0: 223c 99bd e8db 553a da50 07bd 0d24 bfbd
00000300: 35b7 f8bc 2762 0bbd f20b 7ebd ec97 14bd
00000310: 6f5f 9f3d 36f0 f73d f63e 52bc 1adb ae3a
00000320: 16b4 fcbd a3d9 473c d504 bbbd e121 dfbc
00000330: 140c dcbc 828c b93c 617c b43d 179c 1fbd
00000340: fcbd 36bd 90a6 f23d e89e b5bc 7fdd fc3b
00000350: ee7c 47ba 25d5 993d 62cb e13d 4475 15bd
00000360: 1d7c ce3c 4b45 643c 96be b03d 6fb3 ebbb
00000370: 3636 d53d 1db8 8a3d 61f3 eebd 3b39 023d
00000380: cc3a c93d 4226 d23d f49d ac3d 0c54 37bd
00000390: e517 763d 7662 89bc e609 f9bc 1b5d fb3c
000003a0: 2031 a93d a1c6 a43d 5ad3 06bd 2ec8 7ebd
000003b0: 4b6c e43c 6287 4f3d 9e16 453d d4c5 f53c
000003c0: cfcd fb3d 7a2b b2bc d0ef f43d cac9 b43d
000003d0: 2759 3d3d 448f 66bd 500c a13d b9aa 4a3d
000003e0: 6e9d 44bd 3b46 2fbd 9978 053d f81f f6bd
000003f0: 8dd7 2bbc 41a0 91bd ead5 52bd bf45 973d
0.012707103 0.108583145 0.056343958 0.10148823 0.1006227 0.116287716 0.066190094 0.076804556
-0.0019027801 -0.10975323 -0.0149378255 0.021735039 -0.010822908 0.07135019 -0.06380415 -0.1101887
0.08591407 0.022623628 -0.113017105 -0.11257108 -0.09203548 -0.014229185 -0.09653507 -0.08684705
-0.118538 0.05870156 0.090502895 0.11627594 0.10018425 0.05144434 -0.08419985 -0.07981752
0.08284693 -0.08018529 0.120987706 -0.06790177 -0.119055994 0.034708362 -0.08380368 0.04580897
0.098518714 0.055280183 0.092912175 -0.039097548 0.076080516 0.038280364 0.087872215 0.014817744
0.05185914 0.03470695 0.10717942 0.020732867 -0.06724541 0.037246548 -0.00012967856 -0.03965504
-0.057211768 0.045540556 -0.058322106 0.07149456 0.008135328 -0.08672654 0.107810855 0.053289566
0.11411344 -0.04924074 -0.03507665 0.0652227 0.10166016 -0.049454402 0.030398041 -0.015133136
-0.01636989 0.096664645 0.09336942 -0.004428143 -0.0067974897 -0.092395075 -0.004756557 -0.051165275
0.11251758 0.011679896 -0.073190115 0.12144983 0.05517235 -0.09948132 -0.10805145 0.0019592796
-0.026654867 -0.05612539 -0.009841407 -0.014386091 -0.018510288 0.028785922 0.07159971 0.10677569
-0.021992601 0.057066947 0.10669494 0.055502847 0.0889556 0.017370058 -0.020279327 -0.09759404
-0.08947553 -0.029648028 0.046869542 -0.077956684 0.07900993 -0.059944846 0.056527626 -0.11157297
0.0013537029 -0.1219047 -0.0025498702 -0.0626084 -0.04109462 0.060240537 -0.05899945 0.03590647
-0.017826067 -0.047586072 -0.12124987 -0.017042276 -0.043656852 0.10005279 -0.09357855 0.03458641
0.1146645 0.024768634 0.07678351 -0.111270085 -0.03868138 0.083487645 -0.002365671 0.1138867
0.044350192 -0.041370608 0.049760215 -0.08893981 0.11765777 0.023963865 -0.07644168 -0.029498553
0.019405222 0.059669204 0.08327624 0.053838275 -0.09073221 -0.08878125 -0.013491657 0.045883887
0.10733572 -0.048354484 -0.10713544 -0.0034031426 -0.062497787 0.05539505 0.041086838 -0.03185114
-0.11303118 0.091418535 0.024351157 0.043384958 -0.05931725 -0.07679673 0.0055519515 0.006823955
0.009732374 0.10671918 0.07803117 0.1134935 -0.11883538 0.044139776 0.010892192 0.035456073
-0.060756743 -0.010496623 0.06333716 -0.121885255 0.0050410037 0.092148 -0.052466087 -0.11157088
0.104725905 0.008953553 -0.009257333 0.045009855 -0.074821725 0.0008158074 -0.03303609 -0.09333048
-0.030360797 -0.034029152 -0.06202311 -0.036277696 0.077818744 0.121063635 -0.012832394 0.0013340444
-0.12339036 0.012197885 -0.09131781 -0.027237834 -0.026861228 0.022650007 0.08812786 -0.03896722
-0.044614777 0.118481755 -0.022170499 0.007716834 -0.00076098635 0.07511357 0.1102512 -0.036488786
0.025205666 0.013932536 0.086301014 -0.007193021 0.104107305 0.06773398 -0.116675146 0.03179286
0.09825668 0.10261203 0.08428565 -0.044757888 0.06008138 -0.016770583 -0.030400228 0.030684045
0.08261323 0.08045698 -0.032916404 -0.062202625 0.02788367 0.05066622 0.048117273 0.030001558
0.12295114 -0.021749247 0.11959803 0.08827551 0.0462276 -0.056288972 0.078636765 0.04947922
-0.0480017 -0.042791586 0.032585714 -0.12017816 -0.010488403 -0.07110644 -0.051473536 0.0738635

lstm.weight_hh_l0 f4 [256, 64]
00000000: 5399 433d a0c1 d6bd d23c aabb b209 573d
00000010: 9153 063e 7092 b73b 9ef2 323c 5377 d5bd
00000020: 2f6a 283d de4b b63b 8188 77bb 6ee0 d7bd
00000030: 69f3 b63d 925d 073e 2f29 a4bd 1095 e7bd
00000040: 3bb7 4f3d 2f03 333d 6862 b53d 760d 9cbc
00000050: 4cee 2ebc 4fc8 a5bd 6839 dc3d 5527 de3d
00000060: cc11 9dbc 8c86 0bbd ddb5 96b9 defc 253d
00000070: 8e27 a23d 59bc f5bc fe2d c83c 03d4 a8bd
00000080: 9b83 e2bd d0d1 eb3d 98c6 ba3c c830 113d
00000090: 063a 3d3d a8c5 e9bc 245e 033b bcaf 23bd
000000a0: 8bb0 973d 4782 873d 9a72 0c3c 2e6e 243d
000000b0: b53b ac3c d13b 1f3d 17af 8cbd b4d9 ce3d
000000c0: 7904 61bd da14 c4bd 0839 70bd e8ab 1a3d
000000d0: 6e17 d73c 5e7f 4b3c 99d0 27bc 53a6 a4bd
000000e0: e2a4 f4bc 35cf 0bbd d2eb c83d 550e 66bd
000000f0: 60a3 e6bd f6c6 debd f1e8 bd3d 55d5 af3c
00000100: 685b db3d c8d7 1fbd 3856 ad3d d6ca 78bd
00000110: c01b c53d 2b5a f93d bb44 eabb a3e4 123d
00000120: 23b7 07be ef22 4b3d 4a37 b93d af77 46bd
00000130: 6cea 553d cf4f 893b 5efe 88bd ecf7 e23d
00000140: 707b e33c dea1 c03d 973d d2bc 548d 57bb
00000150: 62cf b93d 2436 58bc 4f1c ebbd bb65 e2bd
00000160: 08a7 12bc daa1 01be 5733 e5bd 8123 d3bd
00000170: 7832 e23d afcb debd e03a df3d 9ef3 ae3d
00000180: 50e6 56bd 3d79 a6bd 76ad 823d ee73 91bd
00000190: 7259 a1bb 5bd4 c03d e2de b3bd 23bc 813d
000001a0: 818c ba3d dfe4 763d 2742 eb3d 5f98 79bd
000001b0: dcad 4e3d 79b7 423d a2e1 753d c466 c1bd
000001c0: 0e87 ba3d 431b 953b e78c d3bc 16db 3b3c
000001d0: ba8a b53d af47 303d b755 d03d b68f bdbd
000001e0: 3291 fbbc d25a b23d 2623 173d e057 cc3d
000001f0: 36d2 af3d b86e dfbd 4127 afbc 45c7 a8ba
00000200: 1202 953d f508 e6bd b97f a33d 4454 243b
00000210: 5a14 adbc 6eb3 7ebd 5941 d63d 177f b8bb
00000220: 22dd 183d fcc5 f1bd 4ec5 f5bd ac41 ab3d
00000230: 382d cf3d 5909 cc3c 0518 e1bd f9e3 68bd
00000240: ed98 a23d ce10 943c 24ca 17bd 36c5 03be
00000250: 4554 563d d4a2 e6bd 4d04 04bb ddab af3c
00000260: a58b ff3c 77bf 93bd 76b3 f1bd 6eb5 fe3c
00000270: f614 98bc 30ad 9cbd 3c88 27bd 5de4 dcbb
00000280: 1f0c 8cbd 46d9 c1bc 0af6 e8bd 0daf e7bd
00000290: 8d35 19bd 6f48 033d 1c25 de3c 5689 a23d
000002a0: 9fe0 cf3d a541 883b 3a63 80bd 681a f2bd
000002b0: bead a63d 5526 263c 8816 cabd 3315 d7bd
000002c0: f6d5 d13d a1d4 c43c 1140 fa3d df2c ab3d
000002d0: f08c febd 529a bfbc 782d 31bc 84cb 023e
000002e0: 71fc 90bd bc6e 7ebd 3973 32bd 34cb d6bd
000002f0: f256 993d 060c c03d 59bb 8fbc efa3 88bd
00000300: acd9 3bbc ac6c edbd 92ca 803b 4202 fb3d
00000310: 88d9 23bd 6f5e e1bb 5028 583d cd1b 7939
00000320: 2c70 debd a74b b93d 1e9a 493d 962a a43d
00000330: fb25 8b3d c7da 89bd 60fe 2bbd 196f c13d
00000340: a2e6 cabc e97a b73d 7019 003e 07fa e9bb
00000350: dbcd 1a3c dc17 72bd d61a c4bd 4f68 bfbd
00000360: e325 d8bd 2c28 403d fad4 82bd 89e2 753b
00000370: 0b09 cb3d a8d7 e8bd 71fe 953d 0f90 1dbd
00000380: a2e9 983d 27f0 bbbd 2303 38bd fe3b 663d
00000390: 5f36 453d 349a de3c b1a3 4ebd edfa 6a3d
000003a0: 67ca a33d cf23 c0bc cf0a e03d 82a0 9e3d
000003b0: 5a17 763c e008 9a3d 909f b53c 4764 193d
000003c0: ed7a b3bc 53fc bf3d b632 cf3d 8980 cd3d
000003d0: d806 5a3d 9767 70bd 406c 693d b4d4 cb3d
000003e0: 9e72 dcbc 96a3 e7bc 615e d53d c86b 5e3b
000003f0: 678e b6bd 3f84 ef3d 2e02 95bd 9fd3 743d
0.047753643 -0.1048615 -0.0051952386 0.05249948 0.13117816 0.0056021735 0.010922102 -0.1042315
0.04111689 0.0055632433 -0.0037770572 -0.105408534 0.089331456 0.13219288 -0.08015668 -0.11307728
0.05071185 0.043704208 0.0885666 -0.019049387 -0.010676932 -0.080948465 0.10753137 0.10847346
-0.019173525 -0.03406386 -0.00028745728 0.040524356 0.07917701 -0.029997038 0.024435993 -0.08243563
-0.11060258 0.11514628 0.022799775 0.035446912 0.046197914 -0.028536633 0.0020045126 -0.039962515
0.0740672 0.06616645 0.008572245 0.040144138 0.021024564 0.038875405 -0.06869333 0.10100117
-0.054935906 -0.095742896 -0.05864814 0.0377616 0.02625629 0.012420503 -0.010242605 -0.08039536
-0.029863779 -0.034133155 0.09810604 -0.05616601 -0.1126163 -0.108777925 0.09272946 0.02146403
0.10710794 -0.039024144 0.084637105 -0.060740314 0.096244335 0.12175401 -0.0071493066 0.035862576
-0.13253455 0.049593862 0.09043749 -0.048453983 0.052225515 0.004190422 -0.06689142 0.110824436
0.02776882 0.09405874 -0.025664134 -0.0032890635 0.09072758 -0.013196502 -0.11480009 -0.1105456
-0.008950956 -0.12659398 -0.11191433 -0.10309506 0.110447824 -0.10878693 0.108999014 0.0854256
-0.052465737 -0.08128593 0.06380741 -0.0710219 -0.004923993 0.094155036 -0.08782746 0.06334712
0.0910883 0.060276862 0.11487227 -0.060936328 0.050458774 0.047538254 0.060029633 -0.09443429
0.09107791 0.004550369 -0.025824023 0.011465808 0.088643506 0.043037113 0.10172599 -0.09255926
-0.030708883 0.08708729 0.036898755 0.09977698 0.085850164 -0.1090979 -0.021381022 -0.001287677
0.072757855 -0.11232177 0.079833455 0.002507464 -0.021127868 -0.062182836 0.10461683 -0.0056303847
0.037320264 -0.11805341 -0.120005235 0.08362135 0.10116047 0.024906801 -0.109909095 -0.056858037
0.079393245 0.01807442 -0.03705801 -0.12868199 0.05232646 -0.11261526 -0.0020144165 0.021444255
0.031194517 -0.072142534 -0.118018076 0.031092372 -0.018564682 -0.076502204 -0.040901408 -0.00674109
-0.068382494 -0.023663174 -0.11375053 -0.11312685 -0.037404586 0.0320515 0.027117305 0.07936351
0.10150265 0.004158216 -0.06268926 -0.11821443 0.081386074 0.010140975 -0.09867579 -0.1050209
0.10245888 0.02402717 0.12219251 0.08358168 -0.124292254 -0.023389015 -0.010814063 0.12772948
-0.070793994 -0.062117323 -0.043566916 -0.10487977 0.074872866 0.09377293 -0.017545389 -0.06671893
-0.011465471 -0.11592993 0.0039303983 0.1225629 -0.040002376 -0.0068777124 0.05277282 0.00023756847
-0.10861239 0.09047633 0.049219243 0.08015935 0.067943536 -0.067311816 -0.041990638 0.09445018
-0.024768177 0.0895899 0.12509704 -0.0071404013 0.009448494 -0.059104785 -0.09575431 -0.09346067
-0.10554101 0.04691331 -0.06388278 0.0037519059 0.09913834 -0.11369258 0.073239215 -0.038467463
0.07466437 -0.09176665 -0.044924866 0.056209557 0.048147555 0.02717314 -0.050449077 0.057368208
0.079975896 -0.023454575 0.109395616 0.07745458 0.015020216 0.07521224 0.022170812 0.037449148
-0.021909202 0.09374299 0.10117094 0.10034282 0.053229183 -0.05869254 0.056988 0.09952679
-0.026910122 -0.028276246 0.10418392 0.0033938754 -0.0891388 0.11695146 -0.07275806 0.05977213

lstm.bias_ih_l0 f4 [256]
00000000: 6bdf 41bd cb8f 36bd 5133 d0bd c302 c7bd
00000010: 3e49 993c 8354 d3bd 271d 62bd 00d3 753d
00000020: 32d6 f93c 6680 1dbd 47b5 dbbd b5fc 2b3d
00000030: a0a8 1ebd ebb1 b4bc efc8 063d 2d40 04be
00000040: e600 363d e05c 0fbc f4b5 a4bc 30bd afbd
00000050: f81c 73bd 192d b6bc 584c 7abd 262e 293d
00000060: 4baa d2bd 7c67 a13d ecaf 583d 363b 893d
00000070: 7e8b a1bd 5c82 033c 15a8 70bd 346a bb3d
00000080: 64a7 81bd b8a6 db3d 0000 a2bd 3e88 06be
00000090: 8f1f f0bd 501e f1bd f819 c03c 9e10 573d
000000a0: ab26 a23d d447 f3bc 61a2 40bd f68d e53d
000000b0: b002 4bbc 45ca af3d d0a5 e73d 377d f93c
000000c0: 8051 fe3d da95 903c e776 4e3d 4825 ea3c
000000d0: f459 873d e02f 9fbd 3f18 983c 727e 603b
000000e0: 063b 95bd 6f77 ebbd 3378 64bc 4748 1f3d
000000f0: e3b2 96bc 774c abbd 6015 30bd 3266 4b3c
00000100: f413 f2bd 7926 b0bc a580 8f3c ae13 a63d
00000110: 6e1a 953d 4d17 87bd d517 ca3d 3999 ce3d
00000120: 1b9f c8bc 6d13 90bd 0012 ca3b 5375 f23d
00000130: a8ec 293d 50b4 b13a 703e 0ebe cd99 c9ba
00000140: 7e31 c8bd 873e c53d 5de4 59bc 4703 153b
00000150: 14cd b3bd bef7 0e3d e0d1 42bd 5474 51bc
00000160: c485 9a3a fc72 02be 1f03 f23d 960d ae3d
00000170: b051 c5bd 8fbc abbd 5dc4 a03c a655 01be
00000180: 9004 983d 7b1e d13d f4cd 473c 1069 8c3d
00000190: 4f92 a6bd f77e f43d 17fc 2b3d e731 0bbe
000001a0: 974a 2abd e9bf bb3d c1d6 25bd 3e38 f03d
000001b0: 1c9d ecbd e208 44bd f08b 24bd 0f82 7bbd
000001c0: 2a0b 84bd ad91 fcbd 5c68 8c3d 5177 07be
000001d0: fa53 9fbd b409 a83d 2e1b 4f3c b0b5 d03c
000001e0: 381d 9ebd d5f1 07be e0cb bbbd 302e a33c
000001f0: 42bd b03d 63e7 85bc 6df0 743d 6277 05be
00000200: ff86 98bd c29f 873d e39f e03d f811 2f3c
00000210: d7d5 37bc c46a fb3d a3f1 1b3d bfa3 a9bd
00000220: e07d 9d3c e1b6 d1bd cdb3 cb3c 68d4 c5bd
00000230: a76b ad3d 7687 f4bd 698d b7bc 377a 67bc
00000240: fac3 cfbd 37d9 bdbd e2f2 18bd 9d64 48bb
00000250: d899 723d 71a7 e1bc 4793 893d e0be 71bd
00000260: d4b8 f33b 3289 dbbc 6af1 53bd 8065 383d
00000270: 61d8 11bd 017d 26bd 6b94 b93d c543 403d
00000280: 4104 babd 9a65 8e3c 3c0b b3bd dfa0 403d
00000290: 24ee cbbc c652 513d 0500 68bd 746c 833d
000002a0: 6977 b23d e11c bbbd 690d 8cbc 986c ffbc
000002b0: 479a c5bd 8044 2cbd 745a 4ebd f1ce 86bd
000002c0: cc93 34bd 6a10 2ab9 792f b63d 3883 d5bd
000002d0: fa8f 4b3c 16e0 ce3d 857b cdbd 3a3a b73c
000002e0: a088 2f3d 70b8 9abb 093c 27bd 61d0 93bc
000002f0: 3334 babd 98d0 8f3d ca45 8d3c 1d92 673d
00000300: ce40 9a3d 9953 fd3d d4e9 8e3d e9d5 acbd
00000310: 8d9a 87bd 2ee2 a0bd 6933 c5bc 0b6d 323d
00000320: 88a6 bc3d f118 0cbe 7883 cd3c 008f fa3d
00000330: 6d01 8abd 506c 2fbc f8b6 473d c689 ccbd
00000340: 3911 35bd 70ce b0bd eadd 983c 04f9 aebd
00000350: fccf c8bd a465 a73d 917f 12bd 0717 9bbd
00000360: 1774 60bd 5362 03bc c6e1 e93d 7bf0 a1bc
00000370: 018a ed3d 961c aebd 6d30 2a3d 22f9 cfbd
00000380: 60d9 c3bd 1388 9bbd 0ee9 18be e959 983a
00000390: 1836 1a3d 2f4c 41bc 0c35 db3d ed87 efbd
000003a0: 3cab 253d caf6 d43d 8ff8 d03c 6f83 a53d
000003b0: 64c2 09be a83e 5e3d 2185 8bbd e71d 46bc
000003c0: 862f b53d 6538 0fbd b3bb 23bd 3556 cdbd
000003d0: c842 863d 39c5 013e f2b7 6a3d 1692 483c
000003e0: 55f0 afbc 3ad1 5d3d 5331 e13c f731 543d
000003f0: 5b41 c93d a3c8 e33d bec8 af3d d013 e7bd
-0.04733221 -0.044570725 -0.10166038 -0.09717324 0.018711682 -0.10318854 -0.055203583 0.06001568
0.030497644 -0.03845253 -0.10727935 0.041989047 -0.038735032 -0.022057494 0.03290647 -0.12915106
0.04443445 -0.0087501705 -0.020106293 -0.085810065 -0.0593538 -0.022238301 -0.061107963 0.041303776
-0.10286387 0.07881066 0.052902147 0.06700747 -0.07887934 0.008026686 -0.058754046 0.09151116
-0.06330755 0.107251585 -0.07910156 -0.1313791 -0.11724769 -0.1177336 0.023449883 0.05250608
0.079175316 -0.029697336 -0.047029857 0.112087175 -0.0123907775 0.08583502 0.11310923 0.030455215
0.12417889 0.01764958 0.050406363 0.02858223 0.06608954 -0.07772803 0.018566249 0.0034255055
-0.072866485 -0.114973895 -0.013944673 0.03888729 -0.018395847 -0.08364194 -0.042989135 0.012414502
-0.11820212 -0.02150272 0.017517397 0.08109222 0.07280432 -0.06596241 0.09867827 0.10087819
-0.02448993 -0.07034955 0.0061666965 0.11838784 0.04148546 0.0013557766 -0.13891006 -0.0015380919
-0.09775065 0.09631067 -0.013299075 0.002273755 -0.0877935 0.034904234 -0.047563434 -0.012784082
0.0011789133 -0.12739176 0.118170016 0.08498685 -0.09634721 -0.08385574 0.019624883 -0.12630329
0.07422745 0.10210892 0.012195099 0.068559766 -0.08133375 0.11938279 0.04198846 -0.13593255
-0.04157504 0.09167463 -0.04048801 0.11729477 -0.11553404 -0.047860034 -0.040172517 -0.06140333
-0.06447442 -0.12332473 0.068558425 -0.1322911 -0.07779689 0.08204976 0.0126407575 0.02547726
-0.07720417 -0.13275845 -0.091697454 0.019919485 0.08629848 -0.016345685 0.0597996 -0.13033822
-0.074476235 0.06622268 0.10967996 0.010685436 -0.011220417 0.12276223 0.03807224 -0.08283185
0.019225061 -0.102399595 0.02486601 -0.09659654 0.08467799 -0.119398996 -0.022406297 -0.014128259
-0.101448014 -0.09269946 -0.037341006 -0.0030577548 0.059228748 -0.027545663 0.06717544 -0.059019923
0.0074378047 -0.026798818 -0.051743902 0.045018673 -0.035606746 -0.040646557 0.090615116 0.04693963
-0.090828426 0.017382432 -0.08742377 0.04702842 -0.024893828 0.05110433 -0.056640644 0.0641717
0.08714182 -0.091363676 -0.017096238 -0.031179711 -0.09648567 -0.042057514 -0.05037923 -0.0658244
-0.044086263 -0.00016218578 0.088957734 -0.104254186 0.012424463 0.10101335 -0.10033325 0.022366632
0.042854905 -0.0047216937 -0.04082874 -0.018043699 -0.090919875 0.07022208 0.017245192 0.05653583
0.07531892 0.123694606 0.06978193 -0.084392376 -0.06621275 -0.0785564 -0.024072366 0.043561023
0.09211451 -0.1368139 0.025087103 0.12234306 -0.06738553 -0.010706976 0.048758477 -0.09987216
-0.044205878 -0.08633125 0.018660504 -0.0854359 -0.09805295 0.08173683 -0.035766188 -0.075727515
-0.054798212 -0.008019048 0.11420016 -0.01976799 0.11598588 -0.08501546 0.04155009 -0.1015494
-0.09562945 -0.075943135 -0.14932653 0.0011623475 0.037649244 -0.011797949 0.10703477 -0.11695848
0.040446505 0.10398634 0.025509147 0.080817096 -0.1345306 0.054258972 -0.06812502 -0.01209209
0.08846955 -0.03496589 -0.039973926 -0.10026208 0.06555706 0.1267289 0.05730433 0.012241861
-0.021476904 0.054154612 0.02748934 0.051805463 0.09826919 0.11122253 0.085832104 -0.11283076

lstm.bias_hh_l0 f4 [256]
00000000: 4603 f4bd bf1d 40bd d9f4 8dbd 23e6 92bd
00000010: cd65 3f3c 5144 cf3d 8be6 8d3d af8c 03be
00000020: f541 48bd a41c 2fbd 8fee bc3d 2d00 573d
00000030: 08b0 80bc a053 e5bd fd71 3abd 519b a63d
00000040: c56f a2bd e0aa 01be 2b20 e13c f473 a23c
00000050: 70ec 0cbd ef35 a33d f91a 663d 1a34 e3bd
00000060: fe63 dcbc 0dc2 22bd d869 f93c 4fe0 6dbd
00000070: 7eca 10bd 62d2 a53d 2370 e4bd 1450 303d
00000080: 760f 043e e07e b03d cec0 abbd e4be e3bd
00000090: 2307 e2bd 00c9 51bd bfa3 af3c 48a0 bdbd
000000a0: 1456 0c3c 9d9b b2bd ec98 b63d 1011 36bd
000000b0: 4654 9c3d 2749 f3bd cce6 b5bd b143 f03c
000000c0: 9c4d 243d 912f 80bc 14bb b93d 1b5e 52bd
000000d0: fb0d 903c 9ab0 053e 57e1 1e3d 1d38 c6bd
000000e0: 8bc9 ab3a a0dd 13bd d8b5 083d 0a16 65bb
000000f0: 2911 e2bd 6d19 fd3c 0c53 bd3d 703f 0fb8
00000100: 6325 cebc 1cd2 3d3b d6e6 88bd 8c3d 79bd
00000110: 8421 a2bd 31f1 3b3c 7066 4ebc 43f6 c6bd
00000120: 02c3 26bd 3438 4d3c c728 f2bd 0b9b 893d
00000130: aa4d 813d b851 aa3d c154 8bbd c8a6 84bd
00000140: 566f adbd 9a70 da3c 41a0 073d d9be b2bd
00000150: 51f2 0cbd c839 a33c bce2 50bc ede4 c0bc
00000160: bf2c f23c 9970 0dbe 77b1 e33d eb56 fc3c
00000170: 06df e9bd 3261 85bd 25b0 d0bc f845 e1bd
00000180: 6d8c 743d a176 57bd 8ced 87bd 526d a83d
00000190: 5a07 013e 6903 c6bd c2c3 703d cee6 a73d
000001a0: 824c e13c 929f cfbc b26a 733d 124b f63d
000001b0: 6a46 293d ca85 65bd c1e2 e63a 8d29 203d
000001c0: a2cd 2a3d 92de 4f3d fe98 a53d 38f1 e83d
000001d0: 065a 05be 5c56 c7bc b201 10bc 20ac d43c
000001e0: 689e b9bd 4530 843d 3c93 abbd d115 a3bc
000001f0: a0e0 8abd 0a71 81bd 8a87 b0bd 0dd4 793c
00000200: c760 87bd d51d 043e b7c9 8ebd a355 ff3c
00000210: 9cae 04be c894 8ebc 7e05 bdbd 3135 7dbd
00000220: 0dd4 0cbd b146 e0bc f5e1 dd3c 500f b83d
00000230: 2daa 933d bb34 88bd aad3 92bd d770 983d
00000240: bacc b03d be4c 07bd eb28 803d a710 a93c
00000250: 7d66 aabd 3db8 2ebd 8e95 a5bd 11c8 4f3d
00000260: 2c6a 08be 1017 7ebd 4634 9dbc 6ff9 1abd
00000270: cd73 febd b121 62bd a1c4 933d aa05 04bd
00000280: fdd1 cfbc a97b d2bd 140e 8a3d f873 efbc
00000290: 29f7 d2bd def0 b1bb ebdd cd3d d0ce 6abd
000002a0: 1d7d 7bbd bc44 06be f368 863d 63a2 2c3d
000002b0: d5bd a4bd 2836 293c 2cfa 70bd 03b0 1bbd
000002c0: 4bc3 55bc fef4 83bd 6baa 0bbc 3acd bc3d
000002d0: 15af 28bd e1bb 083e 4dc8 d13c b0ed 66bd
000002e0: 6b0f ae3d 3149 6b3d 31cf 93bd a308 df3d
000002f0: 7fe7 b0bd 7469 8abc 194c 683c 4ada 803d
00000300: 4752 2dbd 2f7c c1bd 1cb5 473d 232f 5cbd
00000310: 095d e23d 6e4f d3bd 5442 cebd 2f99 143d
00000320: 11ba 7abc 2b64 15bd ef16 b93d 820d dbbd
00000330: e4c2 3e3d bfe0 dfbd d91a b03d 56cf c73d
00000340: 3c18 933d 4ed9 953d aed0 a3bd a9d8 793d
00000350: 122e df3c 6869 843d 2a87 97bc c740 e8bc
00000360: ff95 d0bd 99d3 00be 6e77 65bd 4651 d43d
00000370: 48f2 40bd a44f d3bd f5d0 703b 1a8b af3d
00000380: f9a0 50bd 50b1 bf3d 46ee 12be c0b6 ac3d
00000390: 1840 1dbd cdb1 e13d 206e c53d a141 793d
000003a0: dab7 7cbd 842b 4bbc 42e8 74bc b220 383d
000003b0: 2aa3 34bd 4ff3 a7bd 09f3 85bb 37d4 33bc
000003c0: fab6 a0bd fdd8 6f3d 9442 b53d c57d 52bd
000003d0: f154 1fbe 03a0 76bd f4ea 0fbc e279 a43b
000003e0: 2b74 8d3d 10e9 6a3d c912 02bb 8c69 f1bd
000003f0: 41e2 e33d a1f4 c6bd a43d c63d 6ef5 d73d
-0.11914687 -0.046903368 -0.069314666 -0.07172801 0.011681986 0.10120452 0.06928738 -0.12846635
-0.048891027 -0.042751923 0.09225189 0.052490402 -0.015708938 -0.11197591 -0.045518864 0.08135093
-0.079314746 -0.1266284 0.02748116 0.019830681 -0.034405172 0.079692714 0.056178067 -0.11093922
-0.026903149 -0.039735842 0.030445978 -0.058075245 -0.03534936 0.08096768 -0.11154201 0.04304512
0.12896523 0.086179495 -0.08386384 -0.11120394 -0.110365175 -0.05121708 0.021440385 -0.09259087
0.0085654445 -0.08721087 0.08915886 -0.044449866 0.076332614 -0.11879187 -0.08881912 0.029329153
0.040113077 -0.015647681 0.090688854 -0.051359277 0.017584791 0.1305565 0.03878912 -0.096786715
0.0013106329 -0.03610003 0.033376545 -0.0034955763 -0.11038429 0.030895913 0.092443556 -3.4152938e-05
-0.025164312 0.0028964346 -0.066846535 -0.06084971 -0.07916549 0.011471079 -0.012597665 -0.097149394
-0.040713318 0.012525607 -0.11824184 0.06719025 0.06313641 0.08316368 -0.06803275 -0.064771235
-0.08468501 0.02666502 0.033111814 -0.087278076 -0.03441078 0.019925013 -0.01274937 -0.02354666
0.029562352 -0.13812484 0.11117833 0.030803164 -0.114194915 -0.06512679 -0.025474617 -0.109996736
0.059704233 -0.052603368 -0.06637105 0.08223976 0.1260046 -0.09668619 0.05878044 0.081983194
0.027502302 -0.025344644 0.059427924 0.12026037 0.041326918 -0.056035794 0.0017615185 0.039102126
0.041700013 0.05074937 0.080858216 0.11374134 -0.13022622 -0.024333172 -0.008789467 0.025960982
-0.09063417 0.06454519 -0.08377692 -0.019907864 -0.06781125 -0.063203886 -0.08619602 0.015248311
-0.06610256 0.12902005 -0.06972068 0.031168764 -0.12957233 -0.017404929 -0.09229563 -0.061818305
-0.034381915 -0.027377458 0.027085284 0.08987296 0.07210193 -0.066506825 -0.07169278 0.074433975
0.086327985 -0.03303217 0.062578045 0.020637823 -0.08320329 -0.042656172 -0.08085166 0.050727908
-0.13321751 -0.062033713 -0.019189965 -0.037835535 -0.12424431 -0.055207912 0.07215238 -0.032231964
-0.025368685 -0.102774926 0.067409664 -0.029230103 -0.10301048 -0.005430325 0.10052093 -0.057326138
-0.061398614 -0.13112158 0.06562986 0.04214705 -0.0804402 0.010327853 -0.058832332 -0.038009655
-0.01304705 -0.06443213 -0.0085245175 0.09218831 -0.041182596 0.1335292 0.025608206 -0.05637902
0.084990345 0.057442848 -0.07217253 0.10890319 -0.086379044 -0.016895987 0.014178299 0.06291635
-0.042314794 -0.09447514 0.048756704 -0.05375589 0.11052901 -0.103178844 -0.10071245 0.0362789
-0.015303151 -0.03647248 0.09037577 -0.10695936 0.04657258 -0.10931539 0.08598871 0.09756343
0.07182357 0.07316838 -0.07998787 0.06099764 0.027243648 0.06465417 -0.018497068 -0.0283512
-0.101848595 -0.12580718 -0.0560221 0.10367064 -0.047106057 -0.103179246 0.0036745642 0.085714534
-0.050934765 0.093599916 -0.14348707 0.08433294 -0.038391203 0.11020241 0.09640145 0.060853604
-0.061698772 -0.012400512 -0.014947953 0.044953056 -0.044100918 -0.08200704 -0.00408781 -0.010975889
-0.078474 0.058556546 0.088505894 -0.051389474 -0.15559746 -0.060211193 -0.0087840445 0.0050194124
0.06906923 0.057351172 -0.0019847623 -0.117877096 0.11127139 -0.09714628 0.09679726 0.10544859

fc.weight f4 [2, 64]
00000000: 50db c0bd 1cc6 b6bd c3e2 203c 4782 943d
00000010: 287a e93d 094b acbd 850b 42bd 9600 1ebd
00000020: d8f4 debd b19c c5bd 65f3 69bd 5517 12bd
00000030: 8247 963d 8c4a 003e 60bd e43c b7e5 3e3d
00000040: 8b5a 453c b12a 46bd c310 003d ccec adbd
00000050: e23d 50bd 9fda c4bc b96b 963c 817a 6f3d
00000060: 831b 083e b4a3 71bd 31dc c13d a110 1fbd
00000070: fd66 f63d 40ca ffbc 3a60 cd3d bbd9 943c
00000080: 7ac9 c8bc c15d 28bd ca0d 48bc 0006 a73d
00000090: 7021 033e 2a8a 8d3b 7f2a c53d 1942 c2bd
000000a0: a268 d13d ce88 543c 7c17 f6bc 2046 e3bd
000000b0: 12c2 d1bd c53f 13bd 730d e63d 5f4e 823d
000000c0: 49d2 e03d c431 9bbd 78b6 7e3d 0813 93bd
000000d0: 0b6d 073c 4960 5dbd 17af f93d 924c 873d
000000e0: a670 9abd 4c8f 02bd 2dac 103c 0d33 b93b
000000f0: 18d7 16b9 758b adbc ecd7 ce3d 9047 3e3d
00000100: 687b 143c 0454 a53d 9cb1 da3d a2ab 013e
00000110: 9e5a 12bd 7bd6 ae3d fc2d fcbd d924 833d
00000120: 7191 f2bd 9acb e73d 5158 ad3d 4857 03be
00000130: c68f eb3d 642d 9dbc 8557 973d 793c bfbd
00000140: 5922 b43d 7300 c53d 913b 02bd 05b5 41bd
00000150: 957b c9bc 6706 39bd b305 a9bb a2d4 5a3d
00000160: 5796 ebbc ca86 50bd 8834 01bd 97f2 d4bd
00000170: 2bb8 1abc 7cee e0bd 663a 843c 9b44 abbd
00000180: ec96 d9bd c097 493c ed82 6bbb bce7 e33d
00000190: 41b1 b73c 9139 c73c 061c ae3d 7018 5abd
000001a0: af19 a93d f46c 9bbc 2ec2 c73d 7e71 abbb
000001b0: 404c ccbd b050 0abd 13b0 50bb f62f 383b
000001c0: 9532 8b3c fb9c cebc 81d9 d63c 9fb4 45bd
000001d0: 0cfe 133d 7506 a93d bb44 36bb 8431 663d
000001e0: b79d ea3d 0a00 56bd 6862 efbb 497c 21bd
000001f0: d23f 07be 80db 803d ec4e 9bbc 30f3 493d
-0.094168305 -0.08924505 0.009819689 0.07251411 0.114002526 -0.08412749 -0.047374267 -0.038574778
-0.10886544 -0.09649027 -0.057116885 -0.035666782 0.07337858 0.12528437 0.027922332 0.046605792
0.012045513 -0.048380557 0.031265985 -0.08492431 -0.050840266 -0.024030028 0.018361913 0.05846644
0.13291745 -0.05899401 0.09465826 -0.038834218 0.12031362 -0.03122437 0.100281194 0.018170228
-0.024510134 -0.041105036 -0.012210319 0.08155441 0.12805724 0.004319449 0.09627246 -0.094852634
0.10225035 0.01297207 -0.030040495 -0.1109736 -0.10242094 -0.035949487 0.11233034 0.06362604
0.10977609 -0.075778514 0.062185735 -0.07181364 0.008265744 -0.054046903 0.12191599 0.066064015
-0.07541017 -0.03187494 0.008830112 0.0056518377 -0.00014385243 -0.021184662 0.100997776 0.046454966
0.0090626255 0.08072665 0.106784075 0.12663129 -0.03573095 0.08537003 -0.12313458 0.064035125
-0.11844147 0.11318131 0.08464111 -0.12826264 0.11502032 -0.019186683 0.0738974 -0.09337706
0.08795614 0.09619226 -0.03179509 -0.047291774 -0.024595061 -0.04517212 -0.00515815 0.05342544
-0.028758211 -0.050909795 -0.03154424 -0.10397833 -0.009443323 -0.10982987 0.016141128 -0.08362695
-0.10624489 0.012304246 -0.0035936192 0.11128184 0.022423388 0.024319442 0.08501439 -0.05324596
0.08256852 -0.018972851 0.09753834 -0.005232035 -0.09975481 -0.033768356 -0.003184323 0.0028104759
0.016991893 -0.025221338 0.02622676 -0.048267957 0.03613095 0.08253185 -0.0027811963 0.056199566
0.11455863 -0.05224613 -0.007305432 -0.03942517 -0.1320794 0.06291866 -0.018958531 0.049304187

fc.bias f4 [2]
00000000: 4aa5 0a3d cefd 2ebd
0.03384904 -0.042722516
